Found 202599 images belonging to 1 classes.
Model: "model_1"
__________________________________________________________________________________________________
Layer (type)                    Output Shape         Param #     Connected to                     
==================================================================================================
encoder_input (InputLayer)      (None, 128, 128, 3)  0                                            
__________________________________________________________________________________________________
encoder_conv_0 (Conv2D)         (None, 64, 64, 32)   896         encoder_input[0][0]              
__________________________________________________________________________________________________
batch_normalization_1 (BatchNor (None, 64, 64, 32)   128         encoder_conv_0[0][0]             
__________________________________________________________________________________________________
leaky_re_lu_1 (LeakyReLU)       (None, 64, 64, 32)   0           batch_normalization_1[0][0]      
__________________________________________________________________________________________________
dropout_1 (Dropout)             (None, 64, 64, 32)   0           leaky_re_lu_1[0][0]              
__________________________________________________________________________________________________
encoder_conv_1 (Conv2D)         (None, 32, 32, 64)   18496       dropout_1[0][0]                  
__________________________________________________________________________________________________
batch_normalization_2 (BatchNor (None, 32, 32, 64)   256         encoder_conv_1[0][0]             
__________________________________________________________________________________________________
leaky_re_lu_2 (LeakyReLU)       (None, 32, 32, 64)   0           batch_normalization_2[0][0]      
__________________________________________________________________________________________________
dropout_2 (Dropout)             (None, 32, 32, 64)   0           leaky_re_lu_2[0][0]              
__________________________________________________________________________________________________
encoder_conv_2 (Conv2D)         (None, 16, 16, 64)   36928       dropout_2[0][0]                  
__________________________________________________________________________________________________
batch_normalization_3 (BatchNor (None, 16, 16, 64)   256         encoder_conv_2[0][0]             
__________________________________________________________________________________________________
leaky_re_lu_3 (LeakyReLU)       (None, 16, 16, 64)   0           batch_normalization_3[0][0]      
__________________________________________________________________________________________________
dropout_3 (Dropout)             (None, 16, 16, 64)   0           leaky_re_lu_3[0][0]              
__________________________________________________________________________________________________
encoder_conv_3 (Conv2D)         (None, 8, 8, 64)     36928       dropout_3[0][0]                  
__________________________________________________________________________________________________
batch_normalization_4 (BatchNor (None, 8, 8, 64)     256         encoder_conv_3[0][0]             
__________________________________________________________________________________________________
leaky_re_lu_4 (LeakyReLU)       (None, 8, 8, 64)     0           batch_normalization_4[0][0]      
__________________________________________________________________________________________________
dropout_4 (Dropout)             (None, 8, 8, 64)     0           leaky_re_lu_4[0][0]              
__________________________________________________________________________________________________
flatten_1 (Flatten)             (None, 4096)         0           dropout_4[0][0]                  
__________________________________________________________________________________________________
mu (Dense)                      (None, 200)          819400      flatten_1[0][0]                  
__________________________________________________________________________________________________
log_var (Dense)                 (None, 200)          819400      flatten_1[0][0]                  
__________________________________________________________________________________________________
encoder_output (Lambda)         (None, 200)          0           mu[0][0]                         
                                                                 log_var[0][0]                    
==================================================================================================
Total params: 1,732,944
Trainable params: 1,732,496
Non-trainable params: 448
__________________________________________________________________________________________________
Model: "model_2"
_________________________________________________________________
Layer (type)                 Output Shape              Param #   
=================================================================
decoder_input (InputLayer)   (None, 200)               0         
_________________________________________________________________
dense_1 (Dense)              (None, 4096)              823296    
_________________________________________________________________
reshape_1 (Reshape)          (None, 8, 8, 64)          0         
_________________________________________________________________
decoder_conv_t_0 (Conv2DTran (None, 16, 16, 64)        36928     
_________________________________________________________________
batch_normalization_5 (Batch (None, 16, 16, 64)        256       
_________________________________________________________________
leaky_re_lu_5 (LeakyReLU)    (None, 16, 16, 64)        0         
_________________________________________________________________
dropout_5 (Dropout)          (None, 16, 16, 64)        0         
_________________________________________________________________
decoder_conv_t_1 (Conv2DTran (None, 32, 32, 64)        36928     
_________________________________________________________________
batch_normalization_6 (Batch (None, 32, 32, 64)        256       
_________________________________________________________________
leaky_re_lu_6 (LeakyReLU)    (None, 32, 32, 64)        0         
_________________________________________________________________
dropout_6 (Dropout)          (None, 32, 32, 64)        0         
_________________________________________________________________
decoder_conv_t_2 (Conv2DTran (None, 64, 64, 32)        18464     
_________________________________________________________________
batch_normalization_7 (Batch (None, 64, 64, 32)        128       
_________________________________________________________________
leaky_re_lu_7 (LeakyReLU)    (None, 64, 64, 32)        0         
_________________________________________________________________
dropout_7 (Dropout)          (None, 64, 64, 32)        0         
_________________________________________________________________
decoder_conv_t_3 (Conv2DTran (None, 128, 128, 3)       867       
_________________________________________________________________
activation_1 (Activation)    (None, 128, 128, 3)       0         
=================================================================
Total params: 917,123
Trainable params: 916,803
Non-trainable params: 320
_________________________________________________________________
Epoch 1/200
 - 327s - loss: 274.6378 - vae_r_loss: 212.7710 - vae_kl_loss: 61.8710

Epoch 00001: saving model to run/vae/0001_faces/weights/weights-001-274.64.h5

Epoch 00001: saving model to run/vae/0001_faces/weights/weights.h5
…
